_________________________________________________________________
Layer (type)                 Output Shape              Param #   
=================================================================
conv2d_1 (Conv2D)            (None, 30, 30, 32)        896       
_________________________________________________________________
conv2d_2 (Conv2D)            (None, 28, 28, 64)        18496     
_________________________________________________________________
max_pooling2d_1 (MaxPooling2 (None, 14, 14, 64)        0         
_________________________________________________________________
dropout_1 (Dropout)          (None, 14, 14, 64)        0         
_________________________________________________________________
flatten_1 (Flatten)          (None, 12544)             0         
_________________________________________________________________
dense_1 (Dense)              (None, 128)               1605760   
_________________________________________________________________
dropout_2 (Dropout)          (None, 128)               0         
_________________________________________________________________
dense_2 (Dense)              (None, 10)                1290      
_________________________________________________________________
rbf_layer_1 (RBFLayer)       (None, 300)               3300      
_________________________________________________________________
dense_rbf (Dense)            (None, 10)                3000      
_________________________________________________________________
Activation_rbf (Activation)  (None, 10)                0         
=================================================================
Total params: 1,632,742
Trainable params: 1,632,742
Non-trainable params: 0
_________________________________________________________________
Train on 50000 samples, validate on 10000 samples
Epoch 1/10

  128/50000 [..............................] - ETA: 9:26 - loss: 2.3012 - acc: 0.1719
  768/50000 [..............................] - ETA: 1:37 - loss: 2.2919 - acc: 0.1758
…
