_________________________________________________________________
Layer (type)                 Output Shape              Param #   
=================================================================
conv2d_1 (Conv2D)            (None, 26, 26, 32)        320       
_________________________________________________________________
conv2d_2 (Conv2D)            (None, 24, 24, 32)        9248      
_________________________________________________________________
max_pooling2d_1 (MaxPooling2 (None, 12, 12, 32)        0         
_________________________________________________________________
flatten_1 (Flatten)          (None, 4608)              0         
_________________________________________________________________
dense_1 (Dense)              (None, 128)               589952    
_________________________________________________________________
dense_2 (Dense)              (None, 10)                1290      
_________________________________________________________________
rbf_layer_1 (RBFLayer)       (None, 300)               3300      
_________________________________________________________________
dense_rbf (Dense)            (None, 10)                3000      
_________________________________________________________________
Activation_rbf (Activation)  (None, 10)                0         
=================================================================
Total params: 607,110
Trainable params: 607,110
Non-trainable params: 0
_________________________________________________________________
Epoch 1/3

  128/60000 [..............................] - ETA: 3:31 - loss: 2.7976 - acc: 0.0703
  256/60000 [..............................] - ETA: 2:18 - loss: 2.6791 - acc: 0.0977
  384/60000 [..............................] - ETA: 1:53 - loss: 2.6015 - acc: 0.0990
…
