_________________________________________________________________
Layer (type)                 Output Shape              Param #   
=================================================================
dense_1 (Dense)              (None, 512)               401920    
_________________________________________________________________
dropout_1 (Dropout)          (None, 512)               0         
_________________________________________________________________
dense_2 (Dense)              (None, 512)               262656    
_________________________________________________________________
dropout_2 (Dropout)          (None, 512)               0         
_________________________________________________________________
dense_3 (Dense)              (None, 10)                5130      
_________________________________________________________________
rbf_layer_1 (RBFLayer)       (None, 300)               3300      
_________________________________________________________________
dense_rbf (Dense)            (None, 10)                3000      
_________________________________________________________________
Activation_rbf (Activation)  (None, 10)                0         
=================================================================
Total params: 676,006
Trainable params: 676,006
Non-trainable params: 0
_________________________________________________________________
Epoch 1/3

  128/60000 [..............................] - ETA: 3:17 - loss: 2.8798 - acc: 0.1172
  384/60000 [..............................] - ETA: 1:14 - loss: 2.5591 - acc: 0.1172
  768/60000 [..............................] - ETA: 42s - loss: 2.4427 - acc: 0.0964 
…
